Pixel_3a/save_model/model.pth/best_ckpt.pth.tar (torch, 5899 bytes, 8 tensors)

shared.0.weight f4 [15, 6]
000000 b9 f1 6c 3e 5b ae bf 3e da cb 7d 3d 30 9a ac 3e
       0.23139085 0.3743771 0.061961986 0.33711386
000010 06 f2 84 3e 15 d2 9f 3d 1d d9 11 be d8 a7 6c 3e
       0.259659 0.07803742 -0.14242978 0.23110902
000020 fe 85 83 be e8 71 22 be b1 42 ab be 7a a2 66 be
       -0.25688165 -0.15863764 -0.3344932 -0.22522917
000030 ec ea c9 3d 27 67 15 3d f5 95 b5 bd 0c 69 82 be
       0.09859261 0.036475327 -0.08866493 -0.2547077
000040 22 00 90 bd 15 ba a8 3e 0b 81 fb 3d 68 d3 0a be
       -0.07031275 0.3295447 0.12280472 -0.13557208
000050 5e 08 57 be f6 99 a6 be 03 83 4d be b9 f0 4f 3e
       -0.20999286 -0.32539338 -0.20069508 0.20306672
000060 fb b0 d0 be 1c 83 95 3e f6 82 c3 3e 07 22 f1 3d
       -0.40760025 0.2920159 0.38185853 0.11774068
000070 cf cc 41 3e 19 fd 9d 3e 1d a0 c5 be eb da b8 bc
       0.18925785 0.3085716 -0.3859872 -0.022565326
000080 40 c1 c3 be 3c 03 70 3e 1b 13 b6 be f4 a2 b2 bd
       -0.38233376 0.23438734 -0.3556145 -0.08722487
000090 30 4b 3e be 16 a1 c7 3d fd 1e 8d 3e 18 d5 e8 3d
       -0.1858337 0.097475216 0.27562705 0.113687694
0000a0 7b 02 50 3c 55 a9 a7 3e 45 5b 08 bc e2 75 3f bc
       0.012695904 0.32746378 -0.008322542 -0.01168582
0000b0 78 34 0f be 5a 42 09 3e 95 da 95 3d 80 a9 64 3e
       -0.13984859 0.13404217 0.07317082 0.22330284
0000c0 82 53 d4 3c e7 f5 c1 be 4c 7e a8 be 1c ef 91 3c
       0.025918726 -0.3788292 -0.32908857 0.017814212
0000d0 8c b3 ef 3d f0 d3 6b 3e d7 8b 1a be 09 7b a5 bd
       0.11704168 0.23030066 -0.15092407 -0.08080108
0000e0 0a 4f b9 be 38 3a a4 3e ce fe b7 be bd 3e af 3d
       -0.36193115 0.32075667 -0.35936588 0.08556888
0000f0 b0 21 c6 bc 29 cd 76 3e 84 1e 87 be 94 30 65 3e
       -0.024185985 0.241017 -0.2639047 0.22381812
000100 81 86 60 bd 16 3b 83 3d 88 24 35 3e fd 11 be be
       -0.054815773 0.06407754 0.17689717 -0.371231
000110 ab fb 9a be 0f 0f 22 be 79 98 b3 3e 01 22 92 3e
       -0.30270132 -0.15826057 0.35077265 0.28541568
000120 60 14 cf be 2e b0 1d 3e 08 43 24 3e eb 32 31 bd
       -0.40445232 0.15399238 0.16041195 -0.04326145
000130 c1 dc 5d be 78 c3 a2 3e f0 d0 55 3e 1e fc c2 3e
       -0.21666242 0.31789756 0.20880485 0.38082975
000140 b9 d4 9e be 32 ae a0 3e 05 b4 0b 3e 51 2f 32 be
       -0.3102167 0.313829 0.13642891 -0.17400862
000150 c2 c1 cd be d6 80 2f 3e 87 d2 b9 3e 1a 08 12 be
       -0.40186888 0.17138991 0.36293432 -0.14260903
000160 93 4e ce bd f7 2c cf 3e
       -0.100735806 0.40463993

shared.0.bias f4 [15]
000000 ae ec 90 be 27 e8 17 bd 74 d2 08 be 31 3b ca be
       -0.28305572 -0.037086632 -0.13361531 -0.39498284
000010 15 e7 cd bd 14 42 94 bd 57 a3 cd 3e 23 db f3 3d
       -0.10053841 -0.07239166 0.4016368 0.119070314
000020 2d 5e 20 be e6 23 ae be 7a ce 8e 3e 1c 4c ae bc
       -0.15660925 -0.34011763 0.27891904 -0.021276526
000030 c7 df 4f bc fa 40 1b 3e 81 2b b7 bc
       -0.01268763 0.15161505 -0.022359611

shared_state.0.weight f4 [15, 15]
000000 24 29 70 be 8d 73 04 3d dc da 0b bd 98 85 29 3e
       -0.23453194 0.03233676 -0.034144267 0.16554868
000010 e3 52 41 3e 3e e5 77 3e 1e 7c 77 be 59 cd 2d be
       0.18879275 0.24208543 -0.2416844 -0.16972865
000020 99 cb 08 be 50 22 5e 3e 39 44 73 be 12 12 11 bd
       -0.13358916 0.21692777 -0.23756494 -0.035417624
000030 c4 40 0c be c9 62 c6 3d 1e 5f 6f 3d 98 7f 8d bd
       -0.13696581 0.096868105 0.05844032 -0.06909102
000040 c2 5d c8 3d 8b cc 1e 3e 29 e6 52 3d 08 74 41 3e
       0.09783508 0.15507714 0.05148903 0.18891919
000050 b7 35 2b bd 96 81 1e be 72 93 34 3d 7e 03 ff bd
       -0.041799273 -0.1547912 0.044085927 -0.12451838
000060 23 85 3f be af 2d 14 be c9 25 10 3a 4d 42 57 3e
       -0.18703131 -0.14470552 0.00054987945 0.21021385
000070 97 44 47 be 09 88 99 3d 2b 66 6b 3d ba 57 6d be
       -0.19459759 0.0749665 0.05747048 -0.23177996
000080 2f d1 82 3e 4a 43 3a be a6 eb 85 bd 45 89 93 bd
       0.2555022 -0.18189731 -0.06539087 -0.072039165
000090 53 f7 0b be 4a 55 cc bd bd 1c 7b be 97 f0 36 3e
       -0.13668565 -0.09977205 -0.24522682 0.17865215
0000a0 48 7c 10 bd 6a b1 48 3d 31 53 50 3e cc 4f 5c 3e
       -0.035274774 0.04899732 0.20344235 0.21514815
0000b0 be f7 46 3e 15 df d3 bd 16 ad cf 3c e9 f0 35 3e
       0.19430444 -0.10345284 0.025351088 0.17767681
0000c0 35 eb 1f 3d 95 41 2b 3e 0e b5 d6 bc a2 ce 4a 3d
       0.03904267 0.16724236 -0.02620938 0.049513467
0000d0 78 d9 4e 3e 3a 16 be ba 16 3a 2b 3e 52 55 54 bd
       0.20200145 -0.0014502474 0.16721377 -0.05183918
0000e0 6c 26 42 3e 1d 1c a2 3d 0b 48 10 be c6 d3 83 be
       0.1895997 0.079155184 -0.14089982 -0.25747508
0000f0 aa ac 6d 3d 90 d3 50 3e ed d4 16 3e 64 6a 53 3e
       0.058025993 0.20393205 0.14729662 0.20646054
000100 ab 9a 1b 3d 0b 8e 1a be 32 8d 33 be d1 7c 91 bd
       0.0379893 -0.15093248 -0.1753433 -0.07103885
000110 f3 74 6b 3d 84 6f c2 bc 38 c1 c5 bd 43 e8 11 be
       0.05748458 -0.023734815 -0.09655994 -0.14248757
000120 21 7b 18 3e 39 7e c7 3d 2f 18 43 bd c1 20 22 be
       0.1489072 0.09740872 -0.047630485 -0.15832807
000130 74 f1 b2 bd 05 a1 63 3e a7 90 60 be 42 a8 2f be
       -0.0873746 0.22229393 -0.2193018 -0.17154029
000140 88 af 62 be 27 e9 04 be db 56 77 be 9b a1 d1 bd
       -0.22137272 -0.12979566 -0.24154226 -0.10235902
000150 df d4 82 3e c9 6e 7a 3b e7 64 ac 3c 53 cd 59 3e
       0.25553033 0.0038213006 0.021044208 0.21269731
000160 2d 64 6d 3e 97 1f 18 be dc 2a c8 3d 7f c0 76 be
       0.23182745 -0.148558 0.097738 -0.24096869
000170 e7 1d ad 3d 4a 1f 55 3e e2 8b d8 3c 9e b4 af 3d
       0.08452969 0.20812717 0.026433889 0.08579372
000180 f2 da 54 3e 11 a8 20 be 05 2f 0d be 57 fd 16 be
       0.20786646 -0.15689112 -0.13787468 -0.14745079
000190 da 2a 51 be fa 9c 55 3e f0 af e8 bd 0b a9 0b be
       -0.20426503 0.20860663 -0.113616824 -0.13638704
0001a0 6c 2c 20 3e aa 24 ad bd 59 f7 41 3e cf 65 29 3e
       0.15641946 -0.08454259 0.18942012 0.16542743
0001b0 b6 a0 53 3c 0c 81 66 3e 9a 9e 47 be ca 5c 46 be
       0.012916734 0.22510165 -0.19494095 -0.19371334
0001c0 9a 61 69 3e 04 9b 51 3e 29 3a 3b 3e b4 f2 7f be
       0.22791138 0.2046929 0.18283905 -0.24994928
0001d0 bd e4 14 3d 9b ec 2d be ef 0e 38 be 77 e2 6d bd
       0.036350954 -0.16984789 -0.17974447 -0.0580773
0001e0 fd f5 1f 3d 71 23 77 be 0c ca 0c bd 68 e8 b0 bc
       0.039052952 -0.24134614 -0.034372374 -0.021595195
0001f0 89 ea 83 3e f2 ef 00 3e af 20 7b 3c b8 96 02 3d
       0.25764874 0.12591532 0.015327617 0.031882018
000200 26 8f 76 3e b0 b2 3c 3d 90 c2 43 3e c9 f8 7c 3e
       0.24078044 0.046068847 0.19117188 0.24704279
000210 46 1e 5f be c9 7d b3 3d e9 fa 45 be 1d 9b 54 be
       -0.21788892 0.08764226 -0.19333996 -0.20762296
000220 c9 87 2e be 6a f1 f6 ba 8b d9 d6 bd c5 f7 02 be
       -0.17043985 -0.0018840258 -0.10490712 -0.12789829
000230 e7 0d 1e be 27 71 13 be 4c 4d 34 be 53 10 20 be
       -0.15434991 -0.14398633 -0.17607611 -0.15631227
000240 c8 86 37 be 22 72 63 be 2d d3 0b 3d 6f 7a fa 3d
       -0.17922509 -0.22211507 0.03413694 0.122303836
000250 3d 45 42 3a ac 1b 06 bb 07 80 7a 3e 8b 0c dc bd
       0.000741083 -0.002046327 0.24462901 -0.1074458
000260 43 20 5e be 1d 16 4b 3e 67 ed 64 bd e5 6d 59 be
       -0.21691994 0.19832654 -0.055890467 -0.21233328
000270 cd 40 37 3d c8 6f 5e 3e 19 bb 76 bd cb 8c e9 bb
       0.044739533 0.21722329 -0.060237024 -0.0071273795
000280 73 cc 3a be d2 97 76 3c 0a 23 41 be f2 b8 20 be
       -0.18242054 0.015050845 -0.18861023 -0.15695551
000290 48 cc a5 bc f9 46 c4 bd 6d 2a 70 be 29 a6 e9 bd
       -0.02023901 -0.095838495 -0.23453684 -0.11408646
0002a0 9b fc 3e bd be c8 42 3e 2b b2 5e 3e 94 db 95 3c
       -0.046627622 0.1902189 0.21747653 0.01829318
0002b0 5d f3 43 be 74 99 47 3e 32 3c 43 3e dd e8 4e 3e
       -0.19135804 0.19492131 0.19065931 0.20206018
0002c0 08 18 2e be e2 b0 ad bd fe d7 29 3e 12 81 6f 3c
       -0.17001355 -0.08481003 0.165863 0.014618175
0002d0 2e bf 0e bd c1 4f 75 be c8 f0 1c 3e f2 e9 10 be
       -0.034850292 -0.23956205 0.15326226 -0.14151743
0002e0 b3 d8 27 be b3 8a fd bd 6a 99 0d 3d 1a df 5c be
       -0.16391258 -0.123799704 0.034570135 -0.21569481
0002f0 7b 2b 2b be 35 0c 46 be e9 aa 5b 3d 85 40 b1 3c
       -0.16715805 -0.19340594 0.05362979 0.02163721
000300 0a e8 9a bd 4e c4 ce 3d 47 93 21 be 8c 92 8f bc
       -0.07563789 0.10096036 -0.15778838 -0.017525934
000310 03 b1 54 bd df 88 0b 3e 2a a8 45 3e 06 f4 56 3e
       -0.051926624 0.13626431 0.19302431 0.20991525
000320 4f ab 11 3e 4e 3f 49 3e 8e 30 0e bd f4 2d 48 3e
       0.14225505 0.19653055 -0.034714274 0.1954878
000330 14 6c 02 3e 04 c2 f9 bd fd a3 5f 3e 7b a8 ba bc
       0.12736541 -0.12195209 0.218399 -0.022785416
000340 32 09 cb bd 15 64 0a 3e 1c 9a cf 3d 01 18 55 be
       -0.09913863 0.13514741 0.10136816 -0.20809938
000350 94 47 7a 3e 0d c9 24 3b 6b fd 8d 3d 4a ed 81 3e
       0.24441367 0.002514425 0.06933101 0.2537635
000360 6b c4 07 be 90 ba 3c 3d a8 85 51 3e 80 1e 48 bd
       -0.13258521 0.046076357 0.20461142 -0.048857212
000370 d1 55 b8 bd 9e 21 fb bd 0e 7d 7d be 3b ff 83 bd
       -0.09000743 -0.12262271 -0.24754736 -0.06445166
000380 6b 4c 6c bd
       -0.057690065

shared_state.0.bias f4 [15]
000000 85 22 81 3e 20 8b ae 3b 99 90 9b 3d 17 36 6a 3e
       0.2522165 0.0053266436 0.07595939 0.22872196
000010 01 ba fb 3d 2c 02 71 be 34 7d 67 3e d0 4f d7 bd
       0.12291337 -0.23535985 0.22606355 -0.1051327
000020 4b 82 83 3e 17 11 3e 3e 27 62 82 3e 54 83 7e be
       0.25685343 0.18561207 0.2546551 -0.24854785
000030 74 b3 1d 3e fd 52 d2 3c ce 82 56 be
       0.15400487 0.025674338 -0.20948336

square_avg f4 [15, 6]
000000 fa 2d 1f 3d 25 99 e2 3c b4 36 40 3d 11 d8 09 3d
       0.038862206 0.027660916 0.04692717 0.033653323
000010 11 d8 09 3d 4c 8b a5 3c 00 00 00 00 00 00 00 00
       0.033653323 0.020208023 0.0 0.0
000020 00 00 00 00 00 00 00 00 00 00 00 00 00 00 00 00
       0.0 0.0 0.0 0.0
000030 00 00 00 00 00 00 00 00 00 00 00 00 00 00 00 00
       0.0 0.0 0.0 0.0
000040 00 00 00 00 00 00 00 00 00 00 00 00 00 00 00 00
       0.0 0.0 0.0 0.0
000050 00 00 00 00 00 00 00 00 00 00 00 00 00 00 00 00
       0.0 0.0 0.0 0.0
000060 9c 4c 38 3d 88 ea 04 3d 12 22 5f 3d 92 16 1f 3d
       0.044994935 0.03245023 0.05447585 0.038839884
000070 92 16 1f 3d 19 28 be 3c 00 00 00 00 00 00 00 00
       0.038839884 0.02321248 0.0 0.0
000080 00 00 00 00 00 00 00 00 00 00 00 00 00 00 00 00
       0.0 0.0 0.0 0.0
000090 df 30 3e 3d 70 4a 06 3d 9f da 65 3d db 85 23 3d
       0.046433326 0.032785833 0.056116696 0.039922576
0000a0 db 85 23 3d 7f 0d c2 3c 80 04 8c 26 2c ae 40 26
       0.039922576 0.023688076 9.715671e-16 6.684943e-16
0000b0 1e 00 21 27 9c 3d b3 26 9c 3d b3 26 fc bb a0 26
       2.2343302e-15 1.2437319e-15 1.2437319e-15 1.1153184e-15
0000c0 00 00 00 00 00 00 00 00 00 00 00 00 00 00 00 00
       0.0 0.0 0.0 0.0
0000d0 00 00 00 00 00 00 00 00 00 00 00 00 00 00 00 00
       0.0 0.0 0.0 0.0
0000e0 00 00 00 00 00 00 00 00 00 00 00 00 00 00 00 00
       0.0 0.0 0.0 0.0
0000f0 1a c4 50 3d bc d3 15 3d eb de 7f 3d 1e a0 36 3d
       0.050968267 0.03657888 0.06246845 0.044586293
000100 1e a0 36 3d c4 ae db 3c ee f3 77 22 88 d9 23 21
       0.044586293 0.026816733 3.3603877e-18 5.551445e-19
000110 15 e9 08 22 22 d3 c4 21 22 d3 c4 21 81 ef 7b 21
       1.855483e-18 1.3337363e-18 1.3337363e-18 8.535909e-19
000120 da 9f 27 3d 12 7d eb 3c 60 f5 47 3d a5 ea 0e 3d
       0.04092393 0.028746162 0.048817992 0.034891743
000130 a5 ea 0e 3d 79 7a ab 3c d9 c9 33 3d 1f 65 00 3d
       0.034891743 0.020932423 0.04389367 0.031346437
000140 ab 6e 5d 3d 5a cd 1d 3d 5a cd 1d 3d 96 23 bd 3c
       0.05406062 0.038525917 0.038525917 0.023088258
000150 e8 a8 3c 3d 56 8b 01 3d 98 0b 5d 3d 19 9f 1e 3d
       0.04605952 0.03162702 0.053966135 0.038725946
000160 19 9f 1e 3d 80 5b bf 3c
       0.038725946 0.02335906

square_avg f4 [15]
000000 10 c1 08 3e 00 00 00 00 00 00 00 00 00 00 00 00
       0.13354897 0.0 0.0 0.0
000010 4a df 1d 3e 00 00 00 00 84 5c 22 3e 0c 69 0d 28
       0.1541721 0.0 0.15855604 7.849851e-15
000020 00 00 00 00 00 00 00 00 d4 5d 35 3e 22 d3 c4 22
       0.0 0.0 0.17711574 5.334945e-18
000030 3c cc 0d 3e 10 c5 1c 3e 8a 42 1d 3e
       0.1384744 0.15309548 0.15357414

square_avg f4 [15, 15]
000000 57 9e 97 2d 00 00 00 00 00 00 00 00 00 00 00 00
       1.723703e-11 0.0 0.0 0.0
000010 30 6d 89 2e 00 00 00 00 de f1 e4 2c b7 ef 9e 24
       6.249434e-11 0.0 6.5070024e-12 6.892767e-17
000020 00 00 00 00 00 00 00 00 19 2f d0 2c a4 f7 9e 23
       0.0 0.0 5.9169445e-12 1.7235274e-17
000030 92 a4 7e 2d d9 55 2f 2e d9 c1 5b 2d 50 e1 46 29
       1.447477e-11 3.986664e-11 1.24917516e-11 4.416026e-14
000040 00 00 00 00 00 00 00 00 00 00 00 00 e5 a9 72 2a
       0.0 0.0 0.0 2.1552862e-13
000050 00 00 00 00 4f ec f6 28 60 53 81 1c 00 00 00 00
       0.0 2.7413969e-14 8.558056e-22 0.0
000060 00 00 00 00 7b a6 36 24 60 a8 2b 23 83 d2 31 29
       0.0 3.9605974e-17 9.305583e-18 3.9484485e-14
000070 69 2c 27 2a bc c2 90 29 14 a3 09 3e 00 00 00 00
       1.4847987e-13 6.4286657e-14 0.13441116 0.0
000080 00 00 00 00 00 00 00 00 a4 5e 9a 3e 00 00 00 00
       0.0 0.0 0.3015033 0.0
000090 85 2a 22 3d 52 a7 2d 25 00 00 00 00 00 00 00 00
       0.03959133 1.5062048e-16 0.0 0.0
0000a0 ec 7d 87 3d e4 07 80 22 0e 03 f5 3d 5b 51 7b 3e
       0.066158146 3.4702824e-18 0.11963473 0.24542753
0000b0 0f e5 0d 3c ea 59 3f 27 00 00 00 00 00 00 00 00
       0.008660569 2.6555317e-15 0.0 0.0
0000c0 00 00 00 00 a8 35 a3 28 00 00 00 00 7e 0a 01 27
       0.0 1.8119905e-14 0.0 1.7908034e-15
0000d0 13 cc 38 24 00 00 00 00 00 00 00 00 7c 03 ca 24
       4.0071498e-17 0.0 0.0 8.760944e-17
0000e0 00 00 00 00 69 7e 89 27 28 5f f9 27 a3 c7 64 27
       0.0 3.8162193e-15 6.921455e-15 3.174958e-15
0000f0 50 0a a8 22 00 00 00 00 00 00 00 00 00 00 00 00
       4.554741e-18 0.0 0.0 0.0
000100 26 25 03 23 00 00 00 00 ca 6e b8 26 f4 05 02 25
       7.109391e-18 0.0 1.2797594e-15 1.127772e-16
000110 00 00 00 00 00 00 00 00 8b a5 1a 26 00 00 00 00
       0.0 0.0 5.3653836e-16 0.0
000120 00 00 00 00 39 8f 59 25 a9 8d e7 21 00 00 00 00
       0.0 1.8870275e-16 1.5690666e-18 0.0
000130 00 00 00 00 00 00 00 00 00 00 00 00 00 00 00 00
       0.0 0.0 0.0 0.0
000140 00 00 00 00 00 00 00 00 00 00 00 00 00 00 00 00
       0.0 0.0 0.0 0.0
000150 00 00 00 00 00 00 00 00 00 00 00 00 00 00 00 00
       0.0 0.0 0.0 0.0
000160 00 00 00 00 00 00 00 00 9c c7 0c 2b 00 00 00 00
       0.0 0.0 5.0015005e-13 0.0
000170 00 00 00 00 00 00 00 00 33 7a 20 2c 00 00 00 00
       0.0 0.0 2.2805202e-12 0.0
000180 a6 b2 8c 2a fc aa 2f 24 00 00 00 00 00 00 00 00
       2.4992958e-13 3.8091905e-17 0.0 0.0
000190 06 af eb 24 95 fa af 1c ac b6 1d 2b 35 16 db 2b
       1.02211505e-16 1.1645303e-21 5.6031113e-13 1.556705e-12
0001a0 5b f1 41 2b 00 00 00 00 00 00 00 00 00 00 00 00
       6.890232e-13 0.0 0.0 0.0
0001b0 00 00 00 00 00 00 00 00 00 00 00 00 00 00 00 00
       0.0 0.0 0.0 0.0
0001c0 00 00 00 00 00 00 00 00 00 00 00 00 00 00 00 00
       0.0 0.0 0.0 0.0
0001d0 00 00 00 00 00 00 00 00 00 00 00 00 00 00 00 00
       0.0 0.0 0.0 0.0
0001e0 54 1c 96 28 00 00 00 00 00 00 00 00 00 00 00 00
       1.666563e-14 0.0 0.0 0.0
0001f0 52 cd a7 28 00 00 00 00 8c d7 91 27 7b 1d 8d 22
       1.8629768e-14 0.0 4.047928e-15 3.824934e-18
000200 00 00 00 00 00 00 00 00 d3 6d 90 23 00 00 00 00
       0.0 0.0 1.5659024e-17 0.0
000210 c8 e3 68 21 9c f7 a4 28 05 23 2f 28 0d f4 eb 2f
       7.8906123e-19 1.8315041e-14 9.722045e-15 4.291966e-10
000220 00 00 00 00 00 00 00 00 00 00 00 00 30 76 63 30
       0.0 0.0 0.0 8.2750073e-10
000230 00 00 00 00 63 f3 77 2f 1f c3 f8 24 00 00 00 00
       0.0 2.2550987e-10 1.07883404e-16 0.0
000240 00 00 00 00 d2 28 ce 2f a3 0a ca 21 a3 c8 dc 2f
       0.0 3.7500186e-10 1.3690868e-18 4.0160328e-10
000250 ee 5a 13 30 23 d9 2b 2f 7a 28 58 31 00 00 00 00
       5.360751e-10 1.5629502e-10 3.1455145e-09 0.0
000260 00 00 00 00 00 00 00 00 84 50 e5 31 00 00 00 00
       0.0 0.0 6.6739307e-09 0.0
000270 8b 91 d0 30 bf d1 6c 25 00 00 00 00 00 00 00 00
       1.5175358e-09 2.0540802e-16 0.0 0.0
000280 6a 43 33 31 30 96 68 23 a8 26 3b 31 90 0b 94 31
       2.6086249e-09 1.2608549e-17 2.7234055e-09 4.3086814e-09
000290 88 51 9a 30 0f 23 26 40 00 00 00 00 00 00 00 00
       1.1228147e-09 2.5958898 0.0 0.0
0002a0 00 00 00 00 b9 ca b6 40 00 00 00 00 b6 10 48 3f
       0.0 5.7122464 0.0 0.781505
0002b0 19 89 9c 1f 00 00 00 00 00 00 00 00 d7 71 a6 3f
       6.629538e-20 0.0 0.0 1.3003491
0002c0 60 99 e6 22 5a 62 18 40 aa 26 96 40 21 18 5a 3e
       6.2504017e-18 2.381003 4.6922197 0.21298267
0002d0 40 70 65 2f 00 00 00 00 00 00 00 00 00 00 00 00
       2.0867308e-10 0.0 0.0 0.0
0002e0 10 50 1d 30 00 00 00 00 8d 3f b1 2e dd 65 06 22
       5.7230043e-10 0.0 8.060317e-11 1.8214312e-18
0002f0 00 00 00 00 00 00 00 00 05 60 36 2f 00 00 00 00
       0.0 0.0 1.6586917e-10 0.0
000300 06 69 32 2f c3 cf bb 2f 61 bb 91 2e 49 63 29 25
       1.6226318e-10 3.4162725e-10 6.627122e-11 1.4692052e-16
000310 00 00 00 00 00 00 00 00 00 00 00 00 5c 32 84 25
       0.0 0.0 0.0 2.2932475e-16
000320 00 00 00 00 75 ae 03 26 54 e2 3d 24 00 00 00 00
       0.0 4.568619e-16 4.117455e-17 0.0
000330 00 00 00 00 ea a6 01 24 00 00 00 00 00 00 00 00
       0.0 2.8113798e-17 0.0 0.0
000340 e9 4b cb 24 1f 69 69 24 00 00 00 00 00 00 00 00
       8.816581e-17 5.0612862e-17 0.0 0.0
000350 00 00 00 00 00 00 00 00 00 00 00 00 00 00 00 00
       0.0 0.0 0.0 0.0
000360 00 00 00 00 00 00 00 00 00 00 00 00 00 00 00 00
       0.0 0.0 0.0 0.0
000370 00 00 00 00 00 00 00 00 00 00 00 00 00 00 00 00
       0.0 0.0 0.0 0.0
000380 00 00 00 00
       0.0

square_avg f4 [15]
000000 48 02 25 2c 79 41 6e 29 0f f6 97 3a 0f 1c 9d 27
       2.3449177e-12 5.2903404e-14 0.0011593717 4.3606675e-15
000010 93 0e f6 27 00 00 00 00 57 66 92 2a 00 00 00 00
       6.8294517e-15 0.0 2.6005822e-13 0.0
000020 d0 69 12 29 c8 68 08 2d e8 d0 73 2e cf 6d a1 3c
       3.251029e-14 7.753971e-12 5.543735e-11 0.019705681
000030 34 fc 0c 2d d7 d4 a0 25 00 00 00 00
       8.014079e-12 2.7899802e-16 0.0
